WARNING: Logging before InitGoogleLogging() is written to STDERR
I0420 02:36:20.073283 15660 net.cpp:50] Initializing net from parameters: 
name: "CRFRNN-VOC"
input: "data"
input_dim: 1
input_dim: 3
input_dim: 500
input_dim: 500
force_backward: true
state {
  phase: TEST
}
layer {
  name: "conv1_1"
  type: "Convolution"
  bottom: "data"
  top: "conv1_1"
  param {
    lr_mult: 1
    decay_mult: 1
  }
  param {
    lr_mult: 2
    decay_mult: 0
  }
  convolution_param {
    num_output: 64
    pad: 100
    kernel_size: 3
    engine: CAFFE
  }
}
layer {
  name: "relu1_1"
  type: "ReLU"
  bottom: "conv1_1"
  top: "conv1_1"
}
layer {
  name: "conv1_2"
  type: "Convolution"
  bottom: "conv1_1"
  top: "conv1_2"
  param {
    lr_mult: 1
    decay_mult: 1
  }
  param {
    lr_mult: 2
    decay_mult: 0
  }
  convolution_param {
    num_output: 64
    pad: 1
    kernel_size: 3
    engine: CAFFE
  }
}
layer {
  name: "relu1_2"
  type: "ReLU"
  bottom: "conv1_2"
  top: "conv1_2"
}
layer {
  name: "pool1"
  type: "Pooling"
  bottom: "conv1_2"
  top: "pool1"
  pooling_param {
    pool: MAX
    kernel_size: 2
    stride: 2
  }
}
layer {
  name: "conv2_1"
  type: "Convolution"
  bottom: "pool1"
  top: "conv2_1"
  param {
    lr_mult: 1
    decay_mult: 1
  }
  param {
    lr_mult: 2
    decay_mult: 0
  }
  convolution_param {
    num_output: 128
    pad: 1
    kernel_size: 3
    engine: CAFFE
  }
}
layer {
  name: "relu2_1"
  type: "ReLU"
  bottom: "conv2_1"
  top: "conv2_1"
}
layer {
  name: "conv2_2"
  type: "Convolution"
  bottom: "conv2_1"
  top: "conv2_2"
  param {
    lr_mult: 1
    decay_mult: 1
  }
  param {
    lr_mult: 2
    decay_mult: 0
  }
  convolution_param {
    num_output: 128
    pad: 1
    kernel_size: 3
    engine: CAFFE
  }
}
layer {
  name: "relu2_2"
  type: "ReLU"
  bottom: "conv2_2"
  top: "conv2_2"
}
layer {
  name: "pool2"
  type: "Pooling"
  bottom: "conv2_2"
  top: "pool2"
  pooling_param {
    pool: MAX
    kernel_size: 2
    stride: 2
  }
}
layer {
  name: "conv3_1"
  type: "Convolution"
  bottom: "pool2"
  top: "conv3_1"
  param {
    lr_mult: 1
    decay_mult: 1
  }
  param {
    lr_mult: 2
    decay_mult: 0
  }
  convolution_param {
    num_output: 256
    pad: 1
    kernel_size: 3
    engine: CAFFE
  }
}
layer {
  name: "relu3_1"
  type: "ReLU"
  bottom: "conv3_1"
  top: "conv3_1"
}
layer {
  name: "conv3_2"
  type: "Convolution"
  bottom: "conv3_1"
  top: "conv3_2"
  param {
    lr_mult: 1
    decay_mult: 1
  }
  param {
    lr_mult: 2
    decay_mult: 0
  }
  convolution_param {
    num_output: 256
    pad: 1
    kernel_size: 3
    engine: CAFFE
  }
}
layer {
  name: "relu3_2"
  type: "ReLU"
  bottom: "conv3_2"
  top: "conv3_2"
}
layer {
  name: "conv3_3"
  type: "Convolution"
  bottom: "conv3_2"
  top: "conv3_3"
  param {
    lr_mult: 1
    decay_mult: 1
  }
  param {
    lr_mult: 2
    decay_mult: 0
  }
  convolution_param {
    num_output: 256
    pad: 1
    kernel_size: 3
    engine: CAFFE
  }
}
layer {
  name: "relu3_3"
  type: "ReLU"
  bottom: "conv3_3"
  top: "conv3_3"
}
layer {
  name: "pool3"
  type: "Pooling"
  bottom: "conv3_3"
  top: "pool3"
  pooling_param {
    pool: MAX
    kernel_size: 2
    stride: 2
  }
}
layer {
  name: "conv4_1"
  type: "Convolution"
  bottom: "pool3"
  top: "conv4_1"
  param {
    lr_mult: 1
    decay_mult: 1
  }
  param {
    lr_mult: 2
    decay_mult: 0
  }
  convolution_param {
    num_output: 512
    pad: 1
    kernel_size: 3
    engine: CAFFE
  }
}
layer {
  name: "relu4_1"
  type: "ReLU"
  bottom: "conv4_1"
  top: "conv4_1"
}
layer {
  name: "conv4_2"
  type: "Convolution"
  bottom: "conv4_1"
  top: "conv4_2"
  param {
    lr_mult: 1
    decay_mult: 1
  }
  param {
    lr_mult: 2
    decay_mult: 0
  }
  convolution_param {
    num_output: 512
    pad: 1
    kernel_size: 3
    engine: CAFFE
  }
}
layer {
  name: "relu4_2"
  type: "ReLU"
  bottom: "conv4_2"
  top: "conv4_2"
}
layer {
  name: "conv4_3"
  type: "Convolution"
  bottom: "conv4_2"
  top: "conv4_3"
  param {
    lr_mult: 1
    decay_mult: 1
  }
  param {
    lr_mult: 2
    decay_mult: 0
  }
  convolution_param {
    num_output: 512
    pad: 1
    kernel_size: 3
    engine: CAFFE
  }
}
layer {
  name: "relu4_3"
  type: "ReLU"
  bottom: "conv4_3"
  top: "conv4_3"
}
layer {
  name: "pool4"
  type: "Pooling"
  bottom: "conv4_3"
  top: "pool4"
  pooling_param {
    pool: MAX
    kernel_size: 2
    stride: 2
  }
}
layer {
  name: "conv5_1"
  type: "Convolution"
  bottom: "pool4"
  top: "conv5_1"
  param {
    lr_mult: 1
    decay_mult: 1
  }
  param {
    lr_mult: 2
    decay_mult: 0
  }
  convolution_param {
    num_output: 512
    pad: 1
    kernel_size: 3
    engine: CAFFE
  }
}
layer {
  name: "relu5_1"
  type: "ReLU"
  bottom: "conv5_1"
  top: "conv5_1"
}
layer {
  name: "conv5_2"
  type: "Convolution"
  bottom: "conv5_1"
  top: "conv5_2"
  param {
    lr_mult: 1
    decay_mult: 1
  }
  param {
    lr_mult: 2
    decay_mult: 0
  }
  convolution_param {
    num_output: 512
    pad: 1
    kernel_size: 3
    engine: CAFFE
  }
}
layer {
  name: "relu5_2"
  type: "ReLU"
  bottom: "conv5_2"
  top: "conv5_2"
}
layer {
  name: "conv5_3"
  type: "Convolution"
  bottom: "conv5_2"
  top: "conv5_3"
  param {
    lr_mult: 1
    decay_mult: 1
  }
  param {
    lr_mult: 2
    decay_mult: 0
  }
  convolution_param {
    num_output: 512
    pad: 1
    kernel_size: 3
    engine: CAFFE
  }
}
layer {
  name: "relu5_3"
  type: "ReLU"
  bottom: "conv5_3"
  top: "conv5_3"
}
layer {
  name: "pool5"
  type: "Pooling"
  bottom: "conv5_3"
  top: "pool5"
  pooling_param {
    pool: MAX
    kernel_size: 2
    stride: 2
  }
}
layer {
  name: "fc6"
  type: "Convolution"
  bottom: "pool5"
  top: "fc6"
  param {
    lr_mult: 1
    decay_mult: 1
  }
  param {
    lr_mult: 2
    decay_mult: 0
  }
  convolution_param {
    num_output: 4096
    kernel_size: 7
    engine: CAFFE
  }
}
layer {
  name: "relu6"
  type: "ReLU"
  bottom: "fc6"
  top: "fc6"
}
layer {
  name: "drop6"
  type: "Dropout"
  bottom: "fc6"
  top: "fc6"
  dropout_param {
    dropout_ratio: 0.5
  }
}
layer {
  name: "fc7"
  type: "Convolution"
  bottom: "fc6"
  top: "fc7"
  param {
    lr_mult: 1
    decay_mult: 1
  }
  param {
    lr_mult: 2
    decay_mult: 0
  }
  convolution_param {
    num_output: 4096
    kernel_size: 1
    engine: CAFFE
  }
}
layer {
  name: "relu7"
  type: "ReLU"
  bottom: "fc7"
  top: "fc7"
}
layer {
  name: "drop7"
  type: "Dropout"
  bottom: "fc7"
  top: "fc7"
  dropout_param {
    dropout_ratio: 0.5
  }
}
layer {
  name: "score-fr"
  type: "Convolution"
  bottom: "fc7"
  top: "score"
  param {
    lr_mult: 1
    decay_mult: 1
  }
  param {
    lr_mult: 2
    decay_mult: 0
  }
  convolution_param {
    num_output: 21
    kernel_size: 1
    engine: CAFFE
  }
}
layer {
  name: "score2"
  type: "Deconvolution"
  bottom: "score"
  top: "score2"
  param {
    lr_mult: 1
  }
  convolution_param {
    num_output: 21
    kernel_size: 4
    stride: 2
    weight_filler {
      type: "bilinear"
    }
  }
}
layer {
  name: "score-pool4"
  type: "Convolution"
  bottom: "pool4"
  top: "score-pool4"
  param {
    lr_mult: 1
    decay_mult: 1
  }
  param {
    lr_mult: 2
    decay_mult: 0
  }
  convolution_param {
    num_output: 21
    kernel_size: 1
    engine: CAFFE
  }
}
layer {
  name: "crop"
  type: "Crop"
  bottom: "score-pool4"
  bottom: "score2"
  top: "score-pool4c"
}
layer {
  name: "fuse"
  type: "Eltwise"
  bottom: "score2"
  bottom: "score-pool4c"
  top: "score-fused"
  eltwise_param {
    operation: SUM
  }
}
layer {
  name: "score4"
  type: "Deconvolution"
  bottom: "score-fused"
  top: "score4"
  param {
    lr_mult: 1
    decay_mult: 1
  }
  convolution_param {
    num_output: 21
    bias_term: false
    kernel_size: 4
    stride: 2
  }
}
layer {
  name: "score-pool3"
  type: "Convolution"
  bottom: "pool3"
  top: "score-pool3"
  param {
    lr_mult: 1
    decay_mult: 1
  }
  param {
    lr_mult: 2
    decay_mult: 0
  }
  convolution_param {
    num_output: 21
    kernel_size: 1
    engine: CAFFE
  }
}
layer {
  name: "crop"
  type: "Crop"
  bottom: "score-pool3"
  bottom: "score4"
  top: "score-pool3c"
}
layer {
  name: "fuse"
  type: "Eltwise"
  bottom: "score4"
  bottom: "score-pool3c"
  top: "score-final"
  eltwise_param {
    operation: SUM
  }
}
layer {
  name: "upsample"
  type: "Deconvolution"
  bottom: "score-final"
  top: "bigscore"
  param {
    lr_mult: 0
  }
  convolution_param {
    num_output: 21
    bias_term: false
    kernel_size: 16
    stride: 8
  }
}
layer {
  name: "crop"
  type: "Crop"
  bottom: "bigscore"
  bottom: "data"
  top: "coarse"
}
layer {
  name: "splitting"
  type: "Split"
  bottom: "coarse"
  top: "unary"
  top: "Q0"
}
layer {
  name: "inference1"
  type: "MultiStageMeanfield"
  bottom: "unary"
  bottom: "Q0"
  bottom: "data"
  top: "pred"
  param {
    lr_mult: 10000
  }
  param {
    lr_mult: 10000
  }
  param {
    lr_mult: 1000
  }
  multi_stage_meanfield_param {
    compatibility_mode: POTTS
    threshold: 2
    theta_alpha: 160
    theta_beta: 3
    theta_gamma: 3
    num_iterations: 10
    spatial_filter_weight: 3
    bilateral_filter_weight: 5
  }
}
I0420 02:36:20.073518 15660 net.cpp:436] Input 0 -> data
I0420 02:36:20.073550 15660 layer_factory.hpp:76] Creating layer data_input_0_split
I0420 02:36:20.073565 15660 net.cpp:111] Creating Layer data_input_0_split
I0420 02:36:20.073571 15660 net.cpp:478] data_input_0_split <- data
I0420 02:36:20.073580 15660 net.cpp:434] data_input_0_split -> data_input_0_split_0
I0420 02:36:20.073590 15660 net.cpp:434] data_input_0_split -> data_input_0_split_1
I0420 02:36:20.073598 15660 net.cpp:434] data_input_0_split -> data_input_0_split_2
I0420 02:36:20.073616 15660 net.cpp:156] Setting up data_input_0_split
I0420 02:36:20.073626 15660 net.cpp:164] Top shape: 1 3 500 500 (750000)
I0420 02:36:20.073632 15660 net.cpp:164] Top shape: 1 3 500 500 (750000)
I0420 02:36:20.073639 15660 net.cpp:164] Top shape: 1 3 500 500 (750000)
I0420 02:36:20.073645 15660 layer_factory.hpp:76] Creating layer conv1_1
I0420 02:36:20.073657 15660 net.cpp:111] Creating Layer conv1_1
I0420 02:36:20.073663 15660 net.cpp:478] conv1_1 <- data_input_0_split_0
I0420 02:36:20.073670 15660 net.cpp:434] conv1_1 -> conv1_1
I0420 02:36:20.092154 15660 net.cpp:156] Setting up conv1_1
I0420 02:36:20.092190 15660 net.cpp:164] Top shape: 1 64 698 698 (31181056)
I0420 02:36:20.092209 15660 layer_factory.hpp:76] Creating layer relu1_1
I0420 02:36:20.092223 15660 net.cpp:111] Creating Layer relu1_1
I0420 02:36:20.092232 15660 net.cpp:478] relu1_1 <- conv1_1
I0420 02:36:20.092247 15660 net.cpp:420] relu1_1 -> conv1_1 (in-place)
I0420 02:36:20.092263 15660 net.cpp:156] Setting up relu1_1
I0420 02:36:20.092270 15660 net.cpp:164] Top shape: 1 64 698 698 (31181056)
I0420 02:36:20.092277 15660 layer_factory.hpp:76] Creating layer conv1_2
I0420 02:36:20.092285 15660 net.cpp:111] Creating Layer conv1_2
I0420 02:36:20.092290 15660 net.cpp:478] conv1_2 <- conv1_1
I0420 02:36:20.092298 15660 net.cpp:434] conv1_2 -> conv1_2
I0420 02:36:20.094962 15660 net.cpp:156] Setting up conv1_2
I0420 02:36:20.094983 15660 net.cpp:164] Top shape: 1 64 698 698 (31181056)
I0420 02:36:20.094997 15660 layer_factory.hpp:76] Creating layer relu1_2
I0420 02:36:20.095007 15660 net.cpp:111] Creating Layer relu1_2
I0420 02:36:20.095015 15660 net.cpp:478] relu1_2 <- conv1_2
I0420 02:36:20.095022 15660 net.cpp:420] relu1_2 -> conv1_2 (in-place)
I0420 02:36:20.095031 15660 net.cpp:156] Setting up relu1_2
I0420 02:36:20.095039 15660 net.cpp:164] Top shape: 1 64 698 698 (31181056)
I0420 02:36:20.095046 15660 layer_factory.hpp:76] Creating layer pool1
I0420 02:36:20.095054 15660 net.cpp:111] Creating Layer pool1
I0420 02:36:20.095059 15660 net.cpp:478] pool1 <- conv1_2
I0420 02:36:20.095067 15660 net.cpp:434] pool1 -> pool1
I0420 02:36:20.095078 15660 net.cpp:156] Setting up pool1
I0420 02:36:20.095087 15660 net.cpp:164] Top shape: 1 64 349 349 (7795264)
I0420 02:36:20.095093 15660 layer_factory.hpp:76] Creating layer conv2_1
I0420 02:36:20.095100 15660 net.cpp:111] Creating Layer conv2_1
I0420 02:36:20.095105 15660 net.cpp:478] conv2_1 <- pool1
I0420 02:36:20.095113 15660 net.cpp:434] conv2_1 -> conv2_1
I0420 02:36:20.096457 15660 net.cpp:156] Setting up conv2_1
I0420 02:36:20.096473 15660 net.cpp:164] Top shape: 1 128 349 349 (15590528)
I0420 02:36:20.096493 15660 layer_factory.hpp:76] Creating layer relu2_1
I0420 02:36:20.096503 15660 net.cpp:111] Creating Layer relu2_1
I0420 02:36:20.096509 15660 net.cpp:478] relu2_1 <- conv2_1
I0420 02:36:20.096518 15660 net.cpp:420] relu2_1 -> conv2_1 (in-place)
I0420 02:36:20.096525 15660 net.cpp:156] Setting up relu2_1
I0420 02:36:20.096532 15660 net.cpp:164] Top shape: 1 128 349 349 (15590528)
I0420 02:36:20.096539 15660 layer_factory.hpp:76] Creating layer conv2_2
I0420 02:36:20.096547 15660 net.cpp:111] Creating Layer conv2_2
I0420 02:36:20.096554 15660 net.cpp:478] conv2_2 <- conv2_1
I0420 02:36:20.096561 15660 net.cpp:434] conv2_2 -> conv2_2
I0420 02:36:20.096853 15660 net.cpp:156] Setting up conv2_2
I0420 02:36:20.096863 15660 net.cpp:164] Top shape: 1 128 349 349 (15590528)
I0420 02:36:20.096871 15660 layer_factory.hpp:76] Creating layer relu2_2
I0420 02:36:20.096879 15660 net.cpp:111] Creating Layer relu2_2
I0420 02:36:20.096884 15660 net.cpp:478] relu2_2 <- conv2_2
I0420 02:36:20.096891 15660 net.cpp:420] relu2_2 -> conv2_2 (in-place)
I0420 02:36:20.096899 15660 net.cpp:156] Setting up relu2_2
I0420 02:36:20.096905 15660 net.cpp:164] Top shape: 1 128 349 349 (15590528)
I0420 02:36:20.096911 15660 layer_factory.hpp:76] Creating layer pool2
I0420 02:36:20.096918 15660 net.cpp:111] Creating Layer pool2
I0420 02:36:20.096925 15660 net.cpp:478] pool2 <- conv2_2
I0420 02:36:20.096931 15660 net.cpp:434] pool2 -> pool2
I0420 02:36:20.096940 15660 net.cpp:156] Setting up pool2
I0420 02:36:20.096947 15660 net.cpp:164] Top shape: 1 128 175 175 (3920000)
I0420 02:36:20.096953 15660 layer_factory.hpp:76] Creating layer conv3_1
I0420 02:36:20.096961 15660 net.cpp:111] Creating Layer conv3_1
I0420 02:36:20.096966 15660 net.cpp:478] conv3_1 <- pool2
I0420 02:36:20.096973 15660 net.cpp:434] conv3_1 -> conv3_1
I0420 02:36:20.098340 15660 net.cpp:156] Setting up conv3_1
I0420 02:36:20.098356 15660 net.cpp:164] Top shape: 1 256 175 175 (7840000)
I0420 02:36:20.098369 15660 layer_factory.hpp:76] Creating layer relu3_1
I0420 02:36:20.098377 15660 net.cpp:111] Creating Layer relu3_1
I0420 02:36:20.098383 15660 net.cpp:478] relu3_1 <- conv3_1
I0420 02:36:20.098392 15660 net.cpp:420] relu3_1 -> conv3_1 (in-place)
I0420 02:36:20.098400 15660 net.cpp:156] Setting up relu3_1
I0420 02:36:20.098407 15660 net.cpp:164] Top shape: 1 256 175 175 (7840000)
I0420 02:36:20.098412 15660 layer_factory.hpp:76] Creating layer conv3_2
I0420 02:36:20.098420 15660 net.cpp:111] Creating Layer conv3_2
I0420 02:36:20.098426 15660 net.cpp:478] conv3_2 <- conv3_1
I0420 02:36:20.098434 15660 net.cpp:434] conv3_2 -> conv3_2
I0420 02:36:20.100201 15660 net.cpp:156] Setting up conv3_2
I0420 02:36:20.100219 15660 net.cpp:164] Top shape: 1 256 175 175 (7840000)
I0420 02:36:20.100229 15660 layer_factory.hpp:76] Creating layer relu3_2
I0420 02:36:20.100239 15660 net.cpp:111] Creating Layer relu3_2
I0420 02:36:20.100244 15660 net.cpp:478] relu3_2 <- conv3_2
I0420 02:36:20.100252 15660 net.cpp:420] relu3_2 -> conv3_2 (in-place)
I0420 02:36:20.100261 15660 net.cpp:156] Setting up relu3_2
I0420 02:36:20.100268 15660 net.cpp:164] Top shape: 1 256 175 175 (7840000)
I0420 02:36:20.100273 15660 layer_factory.hpp:76] Creating layer conv3_3
I0420 02:36:20.100281 15660 net.cpp:111] Creating Layer conv3_3
I0420 02:36:20.100287 15660 net.cpp:478] conv3_3 <- conv3_2
I0420 02:36:20.100294 15660 net.cpp:434] conv3_3 -> conv3_3
I0420 02:36:20.102043 15660 net.cpp:156] Setting up conv3_3
I0420 02:36:20.102061 15660 net.cpp:164] Top shape: 1 256 175 175 (7840000)
I0420 02:36:20.102071 15660 layer_factory.hpp:76] Creating layer relu3_3
I0420 02:36:20.102082 15660 net.cpp:111] Creating Layer relu3_3
I0420 02:36:20.102088 15660 net.cpp:478] relu3_3 <- conv3_3
I0420 02:36:20.102097 15660 net.cpp:420] relu3_3 -> conv3_3 (in-place)
I0420 02:36:20.102105 15660 net.cpp:156] Setting up relu3_3
I0420 02:36:20.102111 15660 net.cpp:164] Top shape: 1 256 175 175 (7840000)
I0420 02:36:20.102118 15660 layer_factory.hpp:76] Creating layer pool3
I0420 02:36:20.102133 15660 net.cpp:111] Creating Layer pool3
I0420 02:36:20.102139 15660 net.cpp:478] pool3 <- conv3_3
I0420 02:36:20.102146 15660 net.cpp:434] pool3 -> pool3
I0420 02:36:20.102157 15660 net.cpp:156] Setting up pool3
I0420 02:36:20.102164 15660 net.cpp:164] Top shape: 1 256 88 88 (1982464)
I0420 02:36:20.102169 15660 layer_factory.hpp:76] Creating layer pool3_pool3_0_split
I0420 02:36:20.102177 15660 net.cpp:111] Creating Layer pool3_pool3_0_split
I0420 02:36:20.102183 15660 net.cpp:478] pool3_pool3_0_split <- pool3
I0420 02:36:20.102190 15660 net.cpp:434] pool3_pool3_0_split -> pool3_pool3_0_split_0
I0420 02:36:20.102198 15660 net.cpp:434] pool3_pool3_0_split -> pool3_pool3_0_split_1
I0420 02:36:20.102206 15660 net.cpp:156] Setting up pool3_pool3_0_split
I0420 02:36:20.102213 15660 net.cpp:164] Top shape: 1 256 88 88 (1982464)
I0420 02:36:20.102219 15660 net.cpp:164] Top shape: 1 256 88 88 (1982464)
I0420 02:36:20.102226 15660 layer_factory.hpp:76] Creating layer conv4_1
I0420 02:36:20.102232 15660 net.cpp:111] Creating Layer conv4_1
I0420 02:36:20.102238 15660 net.cpp:478] conv4_1 <- pool3_pool3_0_split_0
I0420 02:36:20.102246 15660 net.cpp:434] conv4_1 -> conv4_1
I0420 02:36:20.107919 15660 net.cpp:156] Setting up conv4_1
I0420 02:36:20.107952 15660 net.cpp:164] Top shape: 1 512 88 88 (3964928)
I0420 02:36:20.107966 15660 layer_factory.hpp:76] Creating layer relu4_1
I0420 02:36:20.107977 15660 net.cpp:111] Creating Layer relu4_1
I0420 02:36:20.107985 15660 net.cpp:478] relu4_1 <- conv4_1
I0420 02:36:20.107995 15660 net.cpp:420] relu4_1 -> conv4_1 (in-place)
I0420 02:36:20.108006 15660 net.cpp:156] Setting up relu4_1
I0420 02:36:20.108012 15660 net.cpp:164] Top shape: 1 512 88 88 (3964928)
I0420 02:36:20.108018 15660 layer_factory.hpp:76] Creating layer conv4_2
I0420 02:36:20.108028 15660 net.cpp:111] Creating Layer conv4_2
I0420 02:36:20.108033 15660 net.cpp:478] conv4_2 <- conv4_1
I0420 02:36:20.108042 15660 net.cpp:434] conv4_2 -> conv4_2
I0420 02:36:20.114776 15660 net.cpp:156] Setting up conv4_2
I0420 02:36:20.114826 15660 net.cpp:164] Top shape: 1 512 88 88 (3964928)
I0420 02:36:20.114855 15660 layer_factory.hpp:76] Creating layer relu4_2
I0420 02:36:20.114866 15660 net.cpp:111] Creating Layer relu4_2
I0420 02:36:20.114874 15660 net.cpp:478] relu4_2 <- conv4_2
I0420 02:36:20.114883 15660 net.cpp:420] relu4_2 -> conv4_2 (in-place)
I0420 02:36:20.114894 15660 net.cpp:156] Setting up relu4_2
I0420 02:36:20.114902 15660 net.cpp:164] Top shape: 1 512 88 88 (3964928)
I0420 02:36:20.114907 15660 layer_factory.hpp:76] Creating layer conv4_3
I0420 02:36:20.114917 15660 net.cpp:111] Creating Layer conv4_3
I0420 02:36:20.114923 15660 net.cpp:478] conv4_3 <- conv4_2
I0420 02:36:20.114930 15660 net.cpp:434] conv4_3 -> conv4_3
I0420 02:36:20.121747 15660 net.cpp:156] Setting up conv4_3
I0420 02:36:20.121783 15660 net.cpp:164] Top shape: 1 512 88 88 (3964928)
I0420 02:36:20.121796 15660 layer_factory.hpp:76] Creating layer relu4_3
I0420 02:36:20.121807 15660 net.cpp:111] Creating Layer relu4_3
I0420 02:36:20.121815 15660 net.cpp:478] relu4_3 <- conv4_3
I0420 02:36:20.121824 15660 net.cpp:420] relu4_3 -> conv4_3 (in-place)
I0420 02:36:20.121835 15660 net.cpp:156] Setting up relu4_3
I0420 02:36:20.121842 15660 net.cpp:164] Top shape: 1 512 88 88 (3964928)
I0420 02:36:20.121848 15660 layer_factory.hpp:76] Creating layer pool4
I0420 02:36:20.121857 15660 net.cpp:111] Creating Layer pool4
I0420 02:36:20.121862 15660 net.cpp:478] pool4 <- conv4_3
I0420 02:36:20.121870 15660 net.cpp:434] pool4 -> pool4
I0420 02:36:20.121881 15660 net.cpp:156] Setting up pool4
I0420 02:36:20.121888 15660 net.cpp:164] Top shape: 1 512 44 44 (991232)
I0420 02:36:20.121894 15660 layer_factory.hpp:76] Creating layer pool4_pool4_0_split
I0420 02:36:20.121901 15660 net.cpp:111] Creating Layer pool4_pool4_0_split
I0420 02:36:20.121907 15660 net.cpp:478] pool4_pool4_0_split <- pool4
I0420 02:36:20.121915 15660 net.cpp:434] pool4_pool4_0_split -> pool4_pool4_0_split_0
I0420 02:36:20.121923 15660 net.cpp:434] pool4_pool4_0_split -> pool4_pool4_0_split_1
I0420 02:36:20.121940 15660 net.cpp:156] Setting up pool4_pool4_0_split
I0420 02:36:20.121948 15660 net.cpp:164] Top shape: 1 512 44 44 (991232)
I0420 02:36:20.121954 15660 net.cpp:164] Top shape: 1 512 44 44 (991232)
I0420 02:36:20.121960 15660 layer_factory.hpp:76] Creating layer conv5_1
I0420 02:36:20.121968 15660 net.cpp:111] Creating Layer conv5_1
I0420 02:36:20.121974 15660 net.cpp:478] conv5_1 <- pool4_pool4_0_split_0
I0420 02:36:20.121983 15660 net.cpp:434] conv5_1 -> conv5_1
I0420 02:36:20.128919 15660 net.cpp:156] Setting up conv5_1
I0420 02:36:20.128957 15660 net.cpp:164] Top shape: 1 512 44 44 (991232)
I0420 02:36:20.128971 15660 layer_factory.hpp:76] Creating layer relu5_1
I0420 02:36:20.128994 15660 net.cpp:111] Creating Layer relu5_1
I0420 02:36:20.129003 15660 net.cpp:478] relu5_1 <- conv5_1
I0420 02:36:20.129012 15660 net.cpp:420] relu5_1 -> conv5_1 (in-place)
I0420 02:36:20.129030 15660 net.cpp:156] Setting up relu5_1
I0420 02:36:20.129037 15660 net.cpp:164] Top shape: 1 512 44 44 (991232)
I0420 02:36:20.129042 15660 layer_factory.hpp:76] Creating layer conv5_2
I0420 02:36:20.129052 15660 net.cpp:111] Creating Layer conv5_2
I0420 02:36:20.129058 15660 net.cpp:478] conv5_2 <- conv5_1
I0420 02:36:20.129066 15660 net.cpp:434] conv5_2 -> conv5_2
I0420 02:36:20.136046 15660 net.cpp:156] Setting up conv5_2
I0420 02:36:20.136083 15660 net.cpp:164] Top shape: 1 512 44 44 (991232)
I0420 02:36:20.136096 15660 layer_factory.hpp:76] Creating layer relu5_2
I0420 02:36:20.136108 15660 net.cpp:111] Creating Layer relu5_2
I0420 02:36:20.136117 15660 net.cpp:478] relu5_2 <- conv5_2
I0420 02:36:20.136126 15660 net.cpp:420] relu5_2 -> conv5_2 (in-place)
I0420 02:36:20.136137 15660 net.cpp:156] Setting up relu5_2
I0420 02:36:20.136145 15660 net.cpp:164] Top shape: 1 512 44 44 (991232)
I0420 02:36:20.136150 15660 layer_factory.hpp:76] Creating layer conv5_3
I0420 02:36:20.136159 15660 net.cpp:111] Creating Layer conv5_3
I0420 02:36:20.136165 15660 net.cpp:478] conv5_3 <- conv5_2
I0420 02:36:20.136173 15660 net.cpp:434] conv5_3 -> conv5_3
I0420 02:36:20.143146 15660 net.cpp:156] Setting up conv5_3
I0420 02:36:20.143183 15660 net.cpp:164] Top shape: 1 512 44 44 (991232)
I0420 02:36:20.143196 15660 layer_factory.hpp:76] Creating layer relu5_3
I0420 02:36:20.143216 15660 net.cpp:111] Creating Layer relu5_3
I0420 02:36:20.143224 15660 net.cpp:478] relu5_3 <- conv5_3
I0420 02:36:20.143234 15660 net.cpp:420] relu5_3 -> conv5_3 (in-place)
I0420 02:36:20.143244 15660 net.cpp:156] Setting up relu5_3
I0420 02:36:20.143250 15660 net.cpp:164] Top shape: 1 512 44 44 (991232)
I0420 02:36:20.143256 15660 layer_factory.hpp:76] Creating layer pool5
I0420 02:36:20.143265 15660 net.cpp:111] Creating Layer pool5
I0420 02:36:20.143270 15660 net.cpp:478] pool5 <- conv5_3
I0420 02:36:20.143278 15660 net.cpp:434] pool5 -> pool5
I0420 02:36:20.143290 15660 net.cpp:156] Setting up pool5
I0420 02:36:20.143296 15660 net.cpp:164] Top shape: 1 512 22 22 (247808)
I0420 02:36:20.143345 15660 layer_factory.hpp:76] Creating layer fc6
I0420 02:36:20.143364 15660 net.cpp:111] Creating Layer fc6
I0420 02:36:20.143370 15660 net.cpp:478] fc6 <- pool5
I0420 02:36:20.143379 15660 net.cpp:434] fc6 -> fc6
I0420 02:36:20.448148 15660 net.cpp:156] Setting up fc6
I0420 02:36:20.448191 15660 net.cpp:164] Top shape: 1 4096 16 16 (1048576)
I0420 02:36:20.448205 15660 layer_factory.hpp:76] Creating layer relu6
I0420 02:36:20.448218 15660 net.cpp:111] Creating Layer relu6
I0420 02:36:20.448226 15660 net.cpp:478] relu6 <- fc6
I0420 02:36:20.448236 15660 net.cpp:420] relu6 -> fc6 (in-place)
I0420 02:36:20.448247 15660 net.cpp:156] Setting up relu6
I0420 02:36:20.448254 15660 net.cpp:164] Top shape: 1 4096 16 16 (1048576)
I0420 02:36:20.448261 15660 layer_factory.hpp:76] Creating layer drop6
I0420 02:36:20.448269 15660 net.cpp:111] Creating Layer drop6
I0420 02:36:20.448274 15660 net.cpp:478] drop6 <- fc6
I0420 02:36:20.448282 15660 net.cpp:420] drop6 -> fc6 (in-place)
I0420 02:36:20.448302 15660 net.cpp:156] Setting up drop6
I0420 02:36:20.448308 15660 net.cpp:164] Top shape: 1 4096 16 16 (1048576)
I0420 02:36:20.448326 15660 layer_factory.hpp:76] Creating layer fc7
I0420 02:36:20.448335 15660 net.cpp:111] Creating Layer fc7
I0420 02:36:20.448341 15660 net.cpp:478] fc7 <- fc6
I0420 02:36:20.448349 15660 net.cpp:434] fc7 -> fc7
I0420 02:36:20.498150 15660 net.cpp:156] Setting up fc7
I0420 02:36:20.498193 15660 net.cpp:164] Top shape: 1 4096 16 16 (1048576)
I0420 02:36:20.498208 15660 layer_factory.hpp:76] Creating layer relu7
I0420 02:36:20.498219 15660 net.cpp:111] Creating Layer relu7
I0420 02:36:20.498227 15660 net.cpp:478] relu7 <- fc7
I0420 02:36:20.498237 15660 net.cpp:420] relu7 -> fc7 (in-place)
I0420 02:36:20.498248 15660 net.cpp:156] Setting up relu7
I0420 02:36:20.498255 15660 net.cpp:164] Top shape: 1 4096 16 16 (1048576)
I0420 02:36:20.498260 15660 layer_factory.hpp:76] Creating layer drop7
I0420 02:36:20.498270 15660 net.cpp:111] Creating Layer drop7
I0420 02:36:20.498275 15660 net.cpp:478] drop7 <- fc7
I0420 02:36:20.498282 15660 net.cpp:420] drop7 -> fc7 (in-place)
I0420 02:36:20.498291 15660 net.cpp:156] Setting up drop7
I0420 02:36:20.498298 15660 net.cpp:164] Top shape: 1 4096 16 16 (1048576)
I0420 02:36:20.498304 15660 layer_factory.hpp:76] Creating layer score-fr
I0420 02:36:20.498312 15660 net.cpp:111] Creating Layer score-fr
I0420 02:36:20.498318 15660 net.cpp:478] score-fr <- fc7
I0420 02:36:20.498327 15660 net.cpp:434] score-fr -> score
I0420 02:36:20.498469 15660 net.cpp:156] Setting up score-fr
I0420 02:36:20.498476 15660 net.cpp:164] Top shape: 1 21 16 16 (5376)
I0420 02:36:20.498486 15660 layer_factory.hpp:76] Creating layer score2
I0420 02:36:20.498503 15660 net.cpp:111] Creating Layer score2
I0420 02:36:20.498509 15660 net.cpp:478] score2 <- score
I0420 02:36:20.498517 15660 net.cpp:434] score2 -> score2
I0420 02:36:20.498850 15660 net.cpp:156] Setting up score2
I0420 02:36:20.498857 15660 net.cpp:164] Top shape: 1 21 34 34 (24276)
I0420 02:36:20.498877 15660 layer_factory.hpp:76] Creating layer score2_score2_0_split
I0420 02:36:20.498884 15660 net.cpp:111] Creating Layer score2_score2_0_split
I0420 02:36:20.498889 15660 net.cpp:478] score2_score2_0_split <- score2
I0420 02:36:20.498898 15660 net.cpp:434] score2_score2_0_split -> score2_score2_0_split_0
I0420 02:36:20.498905 15660 net.cpp:434] score2_score2_0_split -> score2_score2_0_split_1
I0420 02:36:20.498914 15660 net.cpp:156] Setting up score2_score2_0_split
I0420 02:36:20.498921 15660 net.cpp:164] Top shape: 1 21 34 34 (24276)
I0420 02:36:20.498927 15660 net.cpp:164] Top shape: 1 21 34 34 (24276)
I0420 02:36:20.498934 15660 layer_factory.hpp:76] Creating layer score-pool4
I0420 02:36:20.498940 15660 net.cpp:111] Creating Layer score-pool4
I0420 02:36:20.498946 15660 net.cpp:478] score-pool4 <- pool4_pool4_0_split_1
I0420 02:36:20.498955 15660 net.cpp:434] score-pool4 -> score-pool4
I0420 02:36:20.499020 15660 net.cpp:156] Setting up score-pool4
I0420 02:36:20.499027 15660 net.cpp:164] Top shape: 1 21 44 44 (40656)
I0420 02:36:20.499037 15660 layer_factory.hpp:76] Creating layer crop
I0420 02:36:20.499047 15660 net.cpp:111] Creating Layer crop
I0420 02:36:20.499053 15660 net.cpp:478] crop <- score-pool4
I0420 02:36:20.499059 15660 net.cpp:478] crop <- score2_score2_0_split_0
I0420 02:36:20.499066 15660 net.cpp:434] crop -> score-pool4c
I0420 02:36:20.499106 15660 net.cpp:156] Setting up crop
I0420 02:36:20.499114 15660 net.cpp:164] Top shape: 1 21 34 34 (24276)
I0420 02:36:20.499119 15660 layer_factory.hpp:76] Creating layer fuse
I0420 02:36:20.499127 15660 net.cpp:111] Creating Layer fuse
I0420 02:36:20.499133 15660 net.cpp:478] fuse <- score2_score2_0_split_1
I0420 02:36:20.499140 15660 net.cpp:478] fuse <- score-pool4c
I0420 02:36:20.499147 15660 net.cpp:434] fuse -> score-fused
I0420 02:36:20.499156 15660 net.cpp:156] Setting up fuse
I0420 02:36:20.499163 15660 net.cpp:164] Top shape: 1 21 34 34 (24276)
I0420 02:36:20.499169 15660 layer_factory.hpp:76] Creating layer score4
I0420 02:36:20.499176 15660 net.cpp:111] Creating Layer score4
I0420 02:36:20.499182 15660 net.cpp:478] score4 <- score-fused
I0420 02:36:20.499199 15660 net.cpp:434] score4 -> score4
I0420 02:36:20.499227 15660 net.cpp:156] Setting up score4
I0420 02:36:20.499233 15660 net.cpp:164] Top shape: 1 21 70 70 (102900)
I0420 02:36:20.499240 15660 layer_factory.hpp:76] Creating layer score4_score4_0_split
I0420 02:36:20.499248 15660 net.cpp:111] Creating Layer score4_score4_0_split
I0420 02:36:20.499253 15660 net.cpp:478] score4_score4_0_split <- score4
I0420 02:36:20.499260 15660 net.cpp:434] score4_score4_0_split -> score4_score4_0_split_0
I0420 02:36:20.499269 15660 net.cpp:434] score4_score4_0_split -> score4_score4_0_split_1
I0420 02:36:20.499276 15660 net.cpp:156] Setting up score4_score4_0_split
I0420 02:36:20.499284 15660 net.cpp:164] Top shape: 1 21 70 70 (102900)
I0420 02:36:20.499289 15660 net.cpp:164] Top shape: 1 21 70 70 (102900)
I0420 02:36:20.499295 15660 layer_factory.hpp:76] Creating layer score-pool3
I0420 02:36:20.499315 15660 net.cpp:111] Creating Layer score-pool3
I0420 02:36:20.499320 15660 net.cpp:478] score-pool3 <- pool3_pool3_0_split_1
I0420 02:36:20.499328 15660 net.cpp:434] score-pool3 -> score-pool3
I0420 02:36:20.499387 15660 net.cpp:156] Setting up score-pool3
I0420 02:36:20.499392 15660 net.cpp:164] Top shape: 1 21 88 88 (162624)
I0420 02:36:20.499402 15660 layer_factory.hpp:76] Creating layer crop
I0420 02:36:20.499408 15660 net.cpp:111] Creating Layer crop
I0420 02:36:20.499413 15660 net.cpp:478] crop <- score-pool3
I0420 02:36:20.499420 15660 net.cpp:478] crop <- score4_score4_0_split_0
I0420 02:36:20.499428 15660 net.cpp:434] crop -> score-pool3c
I0420 02:36:20.499464 15660 net.cpp:156] Setting up crop
I0420 02:36:20.499471 15660 net.cpp:164] Top shape: 1 21 70 70 (102900)
I0420 02:36:20.499477 15660 layer_factory.hpp:76] Creating layer fuse
I0420 02:36:20.499483 15660 net.cpp:111] Creating Layer fuse
I0420 02:36:20.499490 15660 net.cpp:478] fuse <- score4_score4_0_split_1
I0420 02:36:20.499496 15660 net.cpp:478] fuse <- score-pool3c
I0420 02:36:20.499503 15660 net.cpp:434] fuse -> score-final
I0420 02:36:20.499511 15660 net.cpp:156] Setting up fuse
I0420 02:36:20.499518 15660 net.cpp:164] Top shape: 1 21 70 70 (102900)
I0420 02:36:20.499523 15660 layer_factory.hpp:76] Creating layer upsample
I0420 02:36:20.499531 15660 net.cpp:111] Creating Layer upsample
I0420 02:36:20.499536 15660 net.cpp:478] upsample <- score-final
I0420 02:36:20.499543 15660 net.cpp:434] upsample -> bigscore
I0420 02:36:20.499686 15660 net.cpp:156] Setting up upsample
I0420 02:36:20.499693 15660 net.cpp:164] Top shape: 1 21 568 568 (6775104)
I0420 02:36:20.499701 15660 layer_factory.hpp:76] Creating layer crop
I0420 02:36:20.499707 15660 net.cpp:111] Creating Layer crop
I0420 02:36:20.499713 15660 net.cpp:478] crop <- bigscore
I0420 02:36:20.499721 15660 net.cpp:478] crop <- data_input_0_split_1
I0420 02:36:20.499727 15660 net.cpp:434] crop -> coarse
I0420 02:36:20.499773 15660 net.cpp:156] Setting up crop
I0420 02:36:20.499780 15660 net.cpp:164] Top shape: 1 21 500 500 (5250000)
I0420 02:36:20.499785 15660 layer_factory.hpp:76] Creating layer splitting
I0420 02:36:20.499792 15660 net.cpp:111] Creating Layer splitting
I0420 02:36:20.499799 15660 net.cpp:478] splitting <- coarse
I0420 02:36:20.499805 15660 net.cpp:434] splitting -> unary
I0420 02:36:20.499814 15660 net.cpp:434] splitting -> Q0
I0420 02:36:20.499821 15660 net.cpp:156] Setting up splitting
I0420 02:36:20.499827 15660 net.cpp:164] Top shape: 1 21 500 500 (5250000)
I0420 02:36:20.499835 15660 net.cpp:164] Top shape: 1 21 500 500 (5250000)
I0420 02:36:20.499840 15660 layer_factory.hpp:76] Creating layer inference1
I0420 02:36:20.499850 15660 net.cpp:111] Creating Layer inference1
I0420 02:36:20.499855 15660 net.cpp:478] inference1 <- unary
I0420 02:36:20.499861 15660 net.cpp:478] inference1 <- Q0
I0420 02:36:20.499867 15660 net.cpp:478] inference1 <- data_input_0_split_2
I0420 02:36:20.499876 15660 net.cpp:434] inference1 -> pred
I0420 02:36:20.499883 15660 multi_stage_meanfield.cpp:49] This implementation has not been tested batch size > 1.
I0420 02:36:20.563107 15660 multi_stage_meanfield.cpp:152] MultiStageMeanfieldLayer initialized.
I0420 02:36:20.563144 15660 net.cpp:156] Setting up inference1
I0420 02:36:20.563156 15660 net.cpp:164] Top shape: 1 21 500 500 (5250000)
I0420 02:36:20.563170 15660 net.cpp:241] inference1 does not need backward computation.
I0420 02:36:20.563179 15660 net.cpp:241] splitting does not need backward computation.
I0420 02:36:20.563185 15660 net.cpp:241] crop does not need backward computation.
I0420 02:36:20.563192 15660 net.cpp:241] upsample does not need backward computation.
I0420 02:36:20.563199 15660 net.cpp:241] fuse does not need backward computation.
…
